…
  lap_pos_enc = torch.from_numpy(EigVec[:,1:pos_enc_dim+1]).float()
tensor(indices=tensor([[138846, 174217, 234970,  ...,  76064, 177196, 402818],
                       [     0,      0,      0,  ..., 593485, 593485, 593485]]),
       values=tensor([1, 1, 1,  ..., 1, 1, 1]),
       size=(593486, 593486), nnz=6217004, layout=torch.sparse_coo) tensor([[0, 0, 0,  ..., 0, 0, 0],
        [0, 0, 0,  ..., 0, 0, 0],
        [0, 0, 0,  ..., 0, 0, 0],
        ...,
        [0, 0, 0,  ..., 0, 0, 0],
        [0, 0, 0,  ..., 0, 0, 0],
        [0, 0, 0,  ..., 0, 0, 0]]) tensor(13)
cpu cpu cpu
feature process time: 75.6561s
PretrainModel(
  (Linear1): Linear(in_features=110, out_features=512, bias=True)
  (encoder): TransformerBlock(
    (att_embeddings_nope): Linear(in_features=110, out_features=512, bias=True)
    (layers): ModuleList(
      (0): EncoderLayer(
        (self_attention_norm): LayerNorm((512,), eps=1e-05, elementwise_affine=True)
        (self_attention): MultiHeadAttention(
          (linear_q): Linear(in_features=512, out_features=512, bias=True)
          (linear_k): Linear(in_features=512, out_features=512, bias=True)
          (linear_v): Linear(in_features=512, out_features=512, bias=True)
          (att_dropout): Dropout(p=0.1, inplace=False)
          (output_layer): Linear(in_features=512, out_features=512, bias=True)
        )
        (self_attention_dropout): Dropout(p=0.1, inplace=False)
        (ffn_norm): LayerNorm((512,), eps=1e-05, elementwise_affine=True)
        (ffn): FeedForwardNetwork(
          (layer1): Linear(in_features=512, out_features=1024, bias=True)
          (gelu): GELU(approximate='none')
          (layer2): Linear(in_features=1024, out_features=512, bias=True)
        )
        (ffn_dropout): Dropout(p=0.1, inplace=False)
      )
    )
    (final_ln): LayerNorm((512,), eps=1e-05, elementwise_affine=True)
    (out_proj): Linear(in_features=512, out_features=256, bias=True)
    (attn_layer): Linear(in_features=1024, out_features=1, bias=True)
  )
  (marginloss): MarginRankingLoss()
)
link_pretrain.py:43: DeprecationWarning: Calling np.sum(generator) is deprecated, and in the future will give a different result. Use np.sum(np.fromiter(generator)) or the python sum builtin instead.
  print('total params:', sum(p.numel() for p in model.parameters()))
total params: 2349826
starting transformer to coo
…
